testing/fgen15.pt (torch, 32211 bytes, 20 tensors)

net2.layers.0.weight f4 [9, 3, 3, 3]
0	0xbd862c66	-0.06551437
1	0x3dc221ac	0.09479079
2	0x3e16eab7	0.14737974
3	0x3e2cd54b	0.1687824
4	0x3e188b2c	0.1489684
5	0xbe108eee	-0.14117023
6	0x3dfd0cc8	0.123559535
7	0x3d2c31b2	0.04203958
8	0x3d720477	0.05908629
9	0x3d3fc7f1	0.04682154
10	0xbcda5015	-0.026649514
11	0x3c8fbd61	0.017546358
12	0xbd94e5f5	-0.07270423
13	0xbd59c2e2	-0.05316437
14	0x3e0f877a	0.14016524
15	0xbcd9029e	-0.026490506
16	0x3b5ec6d1	0.0033993016
17	0xbe054897	-0.13015972
18	0x3bcb8e32	0.0062120194
19	0xbe098798	-0.13430631
20	0xbc74ea80	-0.014948487
21	0x3e0029b3	0.12515907
22	0x3dd489b0	0.10377824
23	0xbd85cd23	-0.06533267
24	0xbdee6bc7	-0.11641651
25	0xbe05011f	-0.12988709
26	0x3caa58b1	0.020794244
27	0x3e599488	0.21248066
28	0x3e022dbe	0.12712762
29	0xbde1d4ff	-0.11026954
30	0xbd8a112a	-0.06741555
31	0x3d565525	0.052327294
32	0xbc051b0e	-0.008124126
33	0xbdbe54c9	-0.09293515
34	0xbb56aaba	-0.003275557
35	0x3dbc2cc3	0.09188225
36	0xbdc0b45b	-0.094094
37	0x3e042c98	0.12907636
38	0x3e012cc9	0.1261474
39	0x3dd27f78	0.10278219
40	0xbe259bc3	-0.161727
41	0xbe2549b5	-0.16141398
42	0x3bbaf1a1	0.005705074
43	0xbe5327e6	-0.20620689
44	0x3d2051d4	0.039140537
45	0x3c9857ef	0.018596618
46	0xbd9685c6	-0.07349734
47	0x3d9cec01	0.07662202
48	0xbe4e6fa7	-0.2015978
49	0xbe4108ec	-0.1885106
50	0xbdfeb0a1	-0.12436033
51	0xbe2d32a3	-0.16913848
52	0xbe44b2af	-0.19208787
53	0xbe61dca8	-0.2205683
54	0x3dcc670a	0.09980591
55	0xbdfb0ddd	-0.122585036
56	0x3cb03956	0.021511715
57	0x3e07728e	0.13227293
58	0x3e0a3496	0.13496622
59	0xbda203c6	-0.07910876
60	0xbe22b14a	-0.15887943
61	0x3e3568f2	0.17715815
62	0x3e5a3daf	0.21312593
63	0xbe4b6a0e	-0.19864675
64	0xbd1bcf55	-0.038039524
65	0x3e23e264	0.1600433
66	0xbc52ad33	-0.012858677
67	0xbd45d62a	-0.048299946
68	0x3e474195	0.19458611
69	0xbd8b1d27	-0.0679267
70	0xbd97deed	-0.074155666
71	0x3d949331	0.07254637
72	0xbc19c881	-0.009386183
73	0xbba08370	-0.004898481
74	0xbe32b0c4	-0.17450243
75	0x3d05c60a	0.032659568
76	0x3db1ce1b	0.086818896
77	0xbc7a3f2c	-0.01527385
78	0x3bca755d	0.0061785416
79	0xbd587fc6	-0.05285623
80	0xbd6e6171	-0.058198396
81	0x3e1326df	0.14370297
82	0xbe13aaef	-0.14420675
83	0x3ddfdf51	0.10931266
84	0x3d693b68	0.05694142
85	0xbe49d44b	-0.1970989
86	0xbe197b38	-0.1498841
87	0xbe581161	-0.2110038
88	0xbd56c797	-0.052436437
89	0xbe477acd	-0.19480439
90	0xbe120f36	-0.14263615
91	0xbd60817a	-0.05481098
92	0x3e1fb47a	0.1559619
93	0x3d7da962	0.061929114
94	0x3d54efa1	0.05198634
95	0x3aa4b918	0.0012567369
96	0xbe4d34d9	-0.20039691
97	0xbda01a17	-0.07817476
98	0xbe3be168	-0.18347704
99	0x3d577d10	0.052609503
100	0xbd05e12d	-0.032685447
101	0x3d646c5f	0.055767413
102	0x3e17c142	0.14819816
103	0x3e7422b0	0.23841357
104	0x3d977d34	0.073969275
105	0x3e22a76e	0.15884182
106	0x3b7d0cdd	0.0038612403
107	0xbe0b5784	-0.13607603
108	0x3e427f02	0.18993762
109	0xbe397b1a	-0.18113366
110	0x3d7df171	0.061997835
111	0x3d6e2856	0.058143936
112	0x3e3112e2	0.1729236
113	0xbd99b93c	-0.07506034
114	0xbca41ac2	-0.02003229
115	0xbd09e45c	-0.033665046
116	0xbd634085	-0.055481452
117	0xbdf516a8	-0.11967212
118	0x3d447861	0.047966365
119	0xbd4ea5dc	-0.050451145
120	0x3d934b6f	0.07192122
121	0x3d86c85d	0.06581185
122	0x3e38168d	0.17977352
123	0x3c3d096c	0.011537891
124	0x3d852f65	0.065031804
125	0x3e64e76d	0.22353907
126	0xbe41e9dc	-0.18936867
127	0x3d09b340	0.03361821
128	0xbd60ffe3	-0.054931533
129	0xbe25d793	-0.16195516
130	0xbe57579f	-0.21029519
131	0x3de1b27f	0.110203736
132	0xbe56985f	-0.20956562
133	0x3dc24932	0.09486617
134	0x3c95f2d1	0.01830426
135	0x3d0d601c	0.034515485
136	0x3e357c91	0.177233
137	0xbc996bd0	-0.018728167
138	0x3dc8493f	0.097795956
139	0x3e6c5726	0.2308012
140	0x3cdd184c	0.026989125
141	0x3c5ad26b	0.013355832
142	0xbe2a0fa5	-0.1660753
143	0x3dde89ae	0.10866104
144	0xbdf5b93d	-0.11998222
145	0xbe19a655	-0.15004857
146	0x3d68bf26	0.05682292
147	0x3d87572b	0.06608423
148	0xbe3f2f5c	-0.1867041
149	0xbcb60d73	-0.02222321
150	0xbe2fa222	-0.17151693
151	0xbd239993	-0.03994138
152	0xbe7e025d	-0.24805589
153	0x3d1b97d9	0.03798661
154	0xbdcdaccb	-0.10042723
155	0x3c3f1333	0.011662292
156	0x3da7a2cd	0.08185349
157	0xbcd5a5ea	-0.02608009
158	0x3e1a3b82	0.15061763
159	0xbddb1c96	-0.10698812
160	0xbd1ebc7b	-0.038753968
161	0x3e005a63	0.1253448
162	0x3c052b64	0.008128021
163	0x3df53527	0.11973029
164	0xbdd1e000	-0.10247803
165	0x3df8686c	0.12129292
166	0x3d087fb6	0.03332492
167	0xbd9c13ad	-0.0762094
168	0x3cb7d0ce	0.022438433
169	0xbd630d31	-0.055432502
170	0xbb0652e8	-0.0020496193
171	0x3dff9b07	0.12480741
172	0xbdc0d6db	-0.094159804
173	0xbd3b9bc8	-0.04580286
174	0x3e85ad66	0.26108855
175	0x3b818f1a	0.0039538266
176	0xbdde159a	-0.10843964
177	0x3e403baf	0.18772767
178	0x3d80b82f	0.0628513
179	0xbe0f77d5	-0.14010556
180	0x3ce53e5a	0.027983833
181	0xbd037ebd	-0.03210329
182	0x3d88bea0	0.06676984
183	0xbdf61a34	-0.120167166
184	0x3d766179	0.06015155
185	0xbe63e208	-0.22254193
186	0x3e360662	0.17775872
187	0xbda3dbea	-0.0800093
188	0xbd83691a	-0.06416531
189	0xbd75f97a	-0.060052373
190	0x3d26e724	0.040747777
191	0xbd436d5a	-0.047711708
192	0xbd4e032c	-0.050295994
193	0xbd81cc45	-0.063377894
194	0x3e7f619a	0.24939576
195	0x3e1071c4	0.14105898
196	0x3c3c0fb8	0.011478357
197	0x3e730520	0.23732424
198	0xbd7ebbb5	-0.06219073
199	0x3cd03be2	0.02541918
200	0xbe5a4b6f	-0.21317838
201	0x3d38c5cb	0.045110505
202	0xbe28a701	-0.16469957
203	0xbe0f2636	-0.1397942
204	0xbd38a5bc	-0.04507993
205	0x3d6b2932	0.057412334
206	0xbd4b0399	-0.049563978
207	0xbcf8681e	-0.030323084
208	0x3c7cf2e3	0.015438768
209	0xbd1703c2	-0.036868818
210	0xbe09a291	-0.1344092
211	0xbdda98a9	-0.10673649
212	0x3d91f960	0.07127643
213	0x3dad0d82	0.08449842
214	0x3d0a8cb5	0.033825595
215	0xbd9dc92a	-0.077043846
216	0x3dafe179	0.08587927
217	0xbd29a862	-0.041420348
218	0xbe0d2bcd	-0.1378624
219	0xbd8c0d8a	-0.0683852
220	0x3e2f87b1	0.17141606
221	0xbe01c619	-0.12673225
222	0x3e274848	0.16336167
223	0x3d8cb20b	0.068698965
224	0x3e5cc5bd	0.21559806
225	0xbd548159	-0.051881168
226	0x3b3dfd74	0.002899018
227	0x3b2159bc	0.0024620136
228	0xbdd4372a	-0.10362084
229	0xbe59dd8c	-0.2127592
230	0xbe523305	-0.20527275
231	0xbe07ee8b	-0.1327459
232	0x3d45c660	0.04828489
233	0xbe53dba5	-0.20689256
234	0xbe552d44	-0.20818049
235	0xbda655a2	-0.08121802
236	0x3e1e4cae	0.15458938
237	0x3e31d243	0.17365365
238	0xbe03b20f	-0.12860893
239	0x3e03440f	0.12818931
240	0x3bba202e	0.0056801056
241	0x3dfcdbe0	0.12346625
242	0x3e167af3	0.14695339

net2.layers.0.bias f4 [9]
0	0xbe17a9fc	-0.14810938
1	0x3e367476	0.17817864
2	0x3dccf8e6	0.10008411
3	0x3d9a3059	0.07528753
4	0xbd59b168	-0.053147703
5	0xbcc26a7f	-0.023732422
6	0x3ad5edf1	0.0016321522
7	0xbd491600	-0.049093246
8	0x3e287329	0.1645018

net2.layers.1.0.weight f4 [12, 9, 3, 3]
0	0xbd10aec6	-0.035322927
1	0x3cc65c9e	0.024214085
2	0xbe02e0fb	-0.12781136
3	0x3db48b4a	0.0881563
4	0xbd282a1c	-0.041055784
5	0xbdb48552	-0.08814491
6	0x3df8ea5d	0.12154076
7	0x3c217293	0.009853977
8	0x3cf79347	0.030221594
9	0x3cc7daba	0.02439629
10	0xbd935a87	-0.07195001
11	0xbbb2dbf4	-0.0054583494
12	0xbc410218	-0.011780284
13	0x3d4f0322	0.050540097
14	0x3e05dc91	0.1307242
15	0xbb469805	-0.0030303013
16	0x3df701c4	0.12060884
17	0x3e782a9c	0.24235004
18	0x3dc823c5	0.097724475
19	0x3d7d1ba0	0.061793923
20	0xbdd6641c	-0.10468313
21	0x3e080905	0.1328469
22	0xbc40f01c	-0.011775997
23	0x3c400a08	0.011721142
24	0x3dd98654	0.10621324
25	0xbce42ed9	-0.02785437
26	0x3d57d728	0.052695423
27	0xbd93d204	-0.07217792
28	0x3c6202b1	0.013794587
29	0x3dc39776	0.09550373
30	0xbdfd05a0	-0.123545885
31	0xbdc162c0	-0.09442663
32	0x3d96838c	0.07349309
33	0x3cad4bd8	0.02115433
34	0xbcc937d2	-0.02456275
35	0xbcdb97d0	-0.026805788
36	0xbdcb3b44	-0.099234134
37	0xbdf2e62a	-0.118603066
38	0xbdada026	-0.084778115
39	0x3d620f37	0.05519029
40	0x3e1f3ecf	0.15551303
41	0x3dcd31b8	0.10019249
42	0xbc628cda	-0.013827527
43	0xbbdec848	-0.0067987777
44	0x3d36a4af	0.04459065
45	0xbdb9534d	-0.090490915
46	0xbcd4046b	-0.025881013
47	0xbe2c164b	-0.16805379
48	0xbdd9f007	-0.10641485
49	0xbcf5f9c4	-0.030026324
50	0x3be5c557	0.00701205
51	0xbd83531d	-0.06412337
52	0x3cb711b8	0.022347316
53	0xbd959179	-0.07303137
54	0x3c7808d5	0.0151388245
55	0xbd9e6e8a	-0.077359274
56	0x3d9184ae	0.07105385
57	0xbd9c4851	-0.07630981
58	0x3d365fd2	0.044524975
59	0x3df4ac6e	0.11946951
60	0x3c807186	0.015679132
61	0x3dc0403c	0.09387252
62	0x3e2aac60	0.16667318
63	0xbca135d5	-0.01967899
64	0x3d1eaecb	0.038740914
65	0xbde5d667	-0.112225346
66	0x3c888470	0.016664714
67	0xbd91a043	-0.071106456
68	0xbda96278	-0.082707345
69	0x3bed65b7	0.0072447914
70	0xbd0c84d8	-0.034306377
71	0xbd42aae0	-0.04752624
72	0xbd33360d	-0.04375272
73	0xbcaf52b9	-0.02140175
74	0x3e02dc8a	0.12779441
75	0x3d13848c	0.03601508
76	0xbd82a0f4	-0.063783556
77	0xbd521df9	-0.051298115
78	0xbd027884	-0.031853214
79	0x3daaf807	0.08348089
80	0xbc73110b	-0.014835606
81	0x3e4b7313	0.19868116
82	0x3da610c1	0.08108664
83	0xbce48b30	-0.027898401
84	0xbdcfc763	-0.10145452
85	0xbdcff162	-0.10153462
86	0xb995e43d	-0.00028589545
87	0x3dd3f095	0.10348622
88	0xbde1d328	-0.11026603
89	0xbc2630f2	-0.010143505
90	0x3e1b14b9	0.15144624
91	0x3e2f9758	0.17147577
92	0x3d8987cf	0.067153566
93	0xbda3fc47	-0.080071025
94	0x3dad7d2e	0.08471142
95	0xbd03913b	-0.032120924
96	0xbe551fa0	-0.20812845
97	0xbd9c691d	-0.07637236
98	0xbbfc6c31	-0.007703327
99	0x3d979cc1	0.07402945
100	0xbdc2b69e	-0.09507488
101	0xbdd77e1a	-0.10522099
102	0xbd623589	-0.055226836
103	0xbddb3403	-0.1070328
104	0xbdbd98d2	-0.09257664
105	0xbc5521ae	-0.013008518
106	0x3bf2b346	0.007406625
107	0xbda9aa5d	-0.08284447
108	0x3dfe8532	0.12427749
109	0x3dbd20f4	0.09234801
110	0x3c9732c1	0.018456819
111	0xbd795856	-0.06087526
112	0x3d2e773b	0.042594176
113	0x3da07bbe	0.07836102
114	0xbe4df8ce	-0.20114443
115	0xbb4ada17	-0.0030952746
116	0xbc76bcc1	-0.015059651
117	0xbd99cfe4	-0.07510355
118	0xbd4d6188	-0.05014184
119	0xbda7c7c2	-0.08192398
120	0x3da68a40	0.08131838
121	0xbc782cb8	-0.0151473805
122	0x3d150fb2	0.03639192
123	0xbdfb40d5	-0.12268225
124	0xbc925f40	-0.017867684
125	0xbc8e7117	-0.01738791
126	0x3e1af510	0.15132546
127	0x3d927410	0.071510434
128	0xbd9f92a8	-0.07791644
129	0x3cd54ce2	0.026037637
130	0x3c6fa836	0.014627507
131	0xbd584768	-0.052802473
132	0xbd49457a	-0.049138524
133	0xbcb35895	-0.021892825
134	0x3d9ece92	0.07754244
135	0xbd47afd6	-0.048751675
136	0x3cc7af3f	0.024375556
137	0xbb698012	-0.0035629314
138	0xbd0d6572	-0.034520574
139	0x3d3b43a1	0.045718793
140	0x3dbc460f	0.0919305
141	0xbccf4da2	-0.025305573
142	0x3e026483	0.12733655
143	0x3dfa6226	0.122257516
144	0xbe19a36b	-0.15003745
145	0xbb9dfbc6	-0.0048212735
146	0xbdbe43fc	-0.09290311
147	0x3da80fad	0.08206115
148	0x3d76387f	0.060112473
149	0x3dbb9942	0.09160091
150	0xbc275641	-0.010213436
151	0x3da2773d	0.07932899
152	0x3d4d7b49	0.050166402
153	0x3cfe9d4f	0.03108087
154	0xbe07bd3d	-0.13255782
155	0xbbebf114	-0.0072003696
156	0x3e2c05d2	0.16799095
157	0xbd642ce6	-0.05570688
158	0x3dc999b5	0.098437704
159	0x3d440ba2	0.047862656
160	0xbc7a8a68	-0.015291788
161	0x3c49c6c8	0.01231546
162	0x3c87b0ab	0.016563734
163	0xbcf5c3ce	-0.030000594
164	0xbdbb7ace	-0.091542825
165	0x3d92b375	0.07163135
166	0x3c699b9c	0.014258292
167	0xbc734cb3	-0.0148498295
168	0x3cd182a2	0.025574986
169	0x3da501f9	0.08057017
170	0x3d29f10c	0.041489646
171	0x3da05ba5	0.0782998
172	0xba75bd00	-0.00093741715
173	0x3dbf6cd9	0.09346933
174	0x3d930809	0.07179267
175	0xbe163284	-0.14667708
176	0xbe22f42a	-0.15913454
177	0xbddd647e	-0.10810183
178	0xbe586357	-0.21131645
179	0xbde4317b	-0.1114225
180	0xbccd9675	-0.025096158
181	0x3de8a04f	0.113587014
182	0x3cd92ee3	0.026511615
183	0x3cf8590e	0.030315902
184	0xbd24c002	-0.040222175
185	0xbd2f41a5	-0.042787213
186	0xbd38183d	-0.04494499
187	0x3c018df7	0.007907382
188	0xbcd05091	-0.025429042
189	0xbd8853bc	-0.06656596
190	0xbdec4ea9	-0.11538441
191	0x3d9a536d	0.075354435
192	0xbe10bc95	-0.14134438
193	0xbcae8dbc	-0.021307819
194	0x3dd9137e	0.10599421
195	0xbbfb63a3	-0.0076717897
196	0x3cad20ef	0.021133868
197	0x3d77b6a5	0.060476918
198	0xbd8770ab	-0.066132866
199	0x3da788e9	0.081804104
200	0x3d2148ee	0.03937619
201	0x3cda14f8	0.026621327
202	0x3d19206b	0.03738443
203	0xbda399f6	-0.0798835
204	0x3e14e5f2	0.14540842
205	0x3b9e6638	0.004833963
206	0xbe1d7197	-0.15375362
207	0x3e3374e0	0.17525053
208	0x3d97aa71	0.07405556
209	0xbd9676a6	-0.07346849
210	0x3d85f988	0.06541735
211	0x3db8eac1	0.09029151
212	0xbdac7306	-0.084203765
213	0xbc6c0ba0	-0.0144070685
214	0x3d97e20f	0.07416164
215	0x3d231e0b	0.039823573
216	0x3deeec4a	0.11666162
217	0xbd14d715	-0.03633793
218	0x3e529f2e	0.20568535
219	0x3d341e70	0.04397434
220	0xbcd5f605	-0.026118288
221	0xbcc344dc	-0.023836546
222	0x3d47e278	0.04879996
223	0xbe0891c8	-0.13336861
224	0x3d852507	0.06501203
225	0x3dd379fd	0.10326002
226	0x3db8fcdb	0.09032603
227	0x3cf144ba	0.029451717
228	0x3dce0f9f	0.10061573
229	0x3e1ac55e	0.15114352
230	0x3c1e1c80	0.00965035
231	0x3db32fbd	0.0874934
232	0xbdc20ab1	-0.094746955
233	0xbd092dc5	-0.033490915
234	0x3d9001af	0.07031571
235	0x3e727715	0.23678239
236	0x3df83940	0.121202946
237	0x3d573c2a	0.05254761
238	0x3ddf3a4a	0.1089979
239	0x3dcbd72c	0.0995315
240	0xbdea6803	-0.1144562
241	0x3c2627f6	0.010141363
242	0x3c239daf	0.009986325
243	0x3c906172	0.01762459
244	0xbd59b80f	-0.053154048
245	0xbd0ea9d2	-0.034829922
246	0xbdff737d	-0.124731995
247	0x3cd65e9e	0.026168164
248	0x3d237e18	0.039915174
249	0xbd54fad4	-0.05199702
250	0x3bf5927a	0.007494268
251	0x3e4fe179	0.20300855
252	0x3e131b57	0.14365898
253	0x3db4b89a	0.088242725
254	0xbcb3427d	-0.02188229
255	0x3db6e0d2	0.089296

net2.layers.1.0.bias f4 [12]
0	0x3e2ee39d	0.17079015
1	0x3cf52c4d	0.02992835
2	0x3d078330	0.033084095
3	0x3d88de22	0.066829935
4	0x3dae7ff6	0.085205
5	0x3df525ae	0.119700775
6	0x3e142d58	0.14470422
7	0xbcb61adb	-0.022229603
8	0xbc6ebb19	-0.014570975
9	0xbcccdebe	-0.025008556
10	0x3dafa66c	0.08576664
11	0x3de1fcac	0.110345215

net2.layers.2.weight f4 [15, 12, 3, 3]
0	0x3ccdc7d0	0.025119692
1	0xbdb53d1d	-0.08849547
2	0x3d9ef5af	0.07761704
3	0x3deb337d	0.1148443
4	0xbe3f67a9	-0.18691887
5	0x3e272dfc	0.16326135
6	0x3bb66b58	0.0055669956
7	0xbdd779cc	-0.10521278
8	0x3e8cbf49	0.2748969
9	0x3d6f4448	0.058414727
10	0x3c6c0298	0.014404915
11	0xbcee8b56	-0.029119175
12	0x3d8f5fc8	0.07000691
13	0x3dc9d409	0.098548956
14	0xbd8c9472	-0.06864251
15	0xbe82add4	-0.25523245
16	0xbc9db316	-0.019250434
17	0xbde99e37	-0.1140713
18	0x3c72ad97	0.014811895
19	0xbdc516d2	-0.09623493
20	0x3cc05b71	0.023481103
21	0xbd8aa98e	-0.06770621
22	0xbe0f4867	-0.13992463
23	0xbd7f8802	-0.062385567
24	0xbbe74c0a	-0.007058625
25	0x3d6ed2a7	0.058306362
26	0xbba7db28	-0.005122561
27	0x3c83f976	0.016110163
28	0xbc56217f	-0.0130695095
29	0x3ddd7097	0.108124904
30	0xbdf9a8ef	-0.12190425
31	0x3d389a03	0.045068752
32	0xbd2216af	-0.039572414
33	0xbd70c9cf	-0.05878621
34	0x3db3cfc0	0.087798595
35	0xbd96472a	-0.07337792
36	0x3d9a25f4	0.0752677
37	0xbd728e0b	-0.059217494
38	0xbe846979	-0.2586172
39	0xbc9cf7dc	-0.019161157
40	0x3dd3f820	0.103500605
41	0xbd4d35e8	-0.050100237
42	0x3ce764d9	0.02824633
43	0xbda6f7e8	-0.08152753
44	0xbc8ad4b4	-0.016947128
45	0x3d07cd72	0.033154912
46	0xbd52af4b	-0.051436704
47	0x3c96ad97	0.018393321
48	0x3d84ed4c	0.06490573
49	0x3dca62b7	0.098821096
50	0xbb06d24e	-0.0020572129
51	0xbd1c7bc3	-0.038203966
52	0xbe0772ac	-0.13227338
53	0xbd8741aa	-0.06604321
54	0x3d9a2ed2	0.075284615
55	0x3cd9f7c4	0.026607402
56	0x3e1987fe	0.14993283
57	0x3d0ce853	0.03440125
58	0xbe067baa	-0.13133112
59	0x3d72ecc8	0.059307843
60	0x3cc91cda	0.02454989
61	0x3d6414ae	0.055683784
62	0xbdb3564f	-0.087566964
63	0x3d3315a3	0.043721806
64	0xbb377a8b	-0.0027996625
65	0x3df79d65	0.120905675
66	0xbd47a3ec	-0.048740312
67	0x3de0f8f2	0.109849826
68	0x3cd29bd8	0.025709078
69	0x3d8a772c	0.067610115
70	0x3c85a2bf	0.016312955
71	0x3b8d6782	0.0043153176
72	0xbd27823f	-0.040895697
73	0x3d929054	0.07156435
74	0xbe02d1d8	-0.12775362
75	0xbc92f7a5	-0.017940352
76	0x3d1f35c9	0.038869653
77	0x3bcd83f6	0.0062718345
78	0x3d971b23	0.07378223
79	0x3d68788c	0.056755587
80	0x3e48ab91	0.19596697
81	0xbe502479	-0.20326413
82	0xbd74dcaf	-0.059780773
83	0x3d860bb0	0.06545198
84	0xbe1af617	-0.15132938
85	0xbc709bf0	-0.014685616
86	0xbc6508c0	-0.013979137
87	0x3b125ddd	0.002233378
88	0xbcd4ea96	-0.025990766
89	0x3e807c56	0.2509486
90	0x3dbd70a9	0.09250004
91	0x3e23605d	0.15954728
92	0x3df03e82	0.117306724
93	0xbd8f2967	-0.06990319
94	0xbcacd545	-0.021097789
95	0x3d5ec2f1	0.05438513
96	0xbd99040c	-0.07471475
97	0x3ded872c	0.115980476
98	0xbe7d32fa	-0.24726477
99	0xbb7511ba	-0.00373946
100	0xbda81b96	-0.082083866
101	0xbd9e4dc8	-0.07729679
102	0xbe23ddd9	-0.16002597
103	0xbde4e378	-0.11176199
104	0x3ca0439e	0.019563492
105	0xbd271cc4	-0.040798917
106	0x3e628013	0.22119169
107	0x3d6f718f	0.058457907
108	0xbc83294f	-0.016010908
109	0x3d893935	0.067003645
110	0x3c911679	0.017710911
111	0x3cdeb3d1	0.027185353
112	0xbc61281c	-0.013742473
113	0xbd83d20b	-0.06436547
114	0x3da82ff0	0.08212268
115	0xbd4ea9c4	-0.05045487
116	0xbc37c194	-0.011215586
117	0xbc293de4	-0.010329697
118	0xbd59c37f	-0.053164955
119	0x3e15fd73	0.14647464
120	0x3d79c1dd	0.060975898
121	0x3c743542	0.014905276
122	0x3dacd1f2	0.084384814
123	0x3e815a9a	0.25264436
124	0x3dae0943	0.0849786
125	0x3e33d699	0.17562331
126	0x3d8c39e2	0.06846978
127	0x3c65f320	0.014035016
128	0x3cc13ba0	0.023588002
129	0x3dc0b980	0.09410381
130	0xbd107abb	-0.035273295
131	0x3e022e8b	0.12713067
132	0x3d8ca581	0.06867505
133	0x3becabd0	0.00722263
134	0xbce61750	-0.028087288
135	0x3d3fddec	0.0468425
136	0x3d0021bf	0.031282183
137	0x3d817893	0.06321826
138	0xba8bb313	-0.0010658227
139	0xbc9d43a0	-0.019197285
140	0xbd996d5d	-0.074915625
141	0xb971bd0c	-0.00023053976
142	0x3df4c7a0	0.11952138
143	0xbdf1142a	-0.11771424
144	0xbc145936	-0.009054473
145	0xbccc030d	-0.024903798
146	0xbd422538	-0.047398776
147	0x3d11e048	0.035614282
148	0x3da6e432	0.081489936
149	0xbd9834b9	-0.07431931
150	0xbc13cb05	-0.009020572
151	0xbc21e382	-0.009880902
152	0x3d845015	0.06460587
153	0x3d4bbd73	0.04974122
154	0xba9314f4	-0.0011221454
155	0x3d99712e	0.074922904
156	0xbdfc6223	-0.123234056
157	0xbd8937ad	-0.067000724
158	0x3dc0fe89	0.09423549
159	0xbe3d66ac	-0.18496197
160	0xbb9c2137	-0.0047647017
161	0x3e0c99d6	0.13730559
162	0x3d643f65	0.05572452
163	0xbdc81e56	-0.09771411
164	0xbd32fe72	-0.04369969
165	0x3df4e4c4	0.11957696
166	0xbde28e54	-0.11062303
167	0x3e05dcf0	0.13072562
168	0x3d7512d3	0.059832405
169	0xbd9e1424	-0.07718685
170	0xbd5b4d57	-0.053540554
171	0xbd9221cd	-0.07135353
172	0xbd0558c3	-0.032555353
173	0xbe224147	-0.15845214
174	0xbe3b90bf	-0.18316935
175	0xbd21bfef	-0.039489683
176	0xbe085222	-0.13312581
177	0xbd0ed996	-0.034875475
178	0xbd45bafa	-0.048274018
179	0xbd7a7a11	-0.061151568
180	0xbd4a98b2	-0.049462028
181	0x3e43aa86	0.19108018
182	0x3d8fc96f	0.07020842
183	0xbd998159	-0.07495374
184	0x3d81f8d9	0.06346292
185	0xbdc591e6	-0.096469685
186	0xbbbc69c1	-0.0057499115
187	0x3cc64b15	0.024205724
188	0xbca5ba68	-0.020230487
189	0x3db50694	0.08839145
190	0x3d9b4dc2	0.075831905
191	0x3dbcc96a	0.09218104
192	0x3dc759e3	0.097339414
193	0x3c342398	0.010994814
194	0x3e1c54b8	0.15266693
195	0x3e145ca6	0.14488468
196	0x3df19302	0.11795618
197	0x3e039a62	0.12851861
198	0xbd1d593d	-0.038415182
199	0x3c87e1b3	0.016587114
200	0xbd2833ad	-0.041064907
201	0x3da6fe2c	0.08153948
202	0x3dac91e1	0.08426262
203	0xbca0dace	-0.019635584
204	0x3d8fddf2	0.070247546
205	0xbc19b4df	-0.009381502
206	0xbccc1eda	-0.024917055
207	0x3da1898e	0.078875646
208	0x3c8d9f24	0.017287798
209	0x3d863784	0.065535575
210	0x3d50b35c	0.0509523
211	0x3ca0c779	0.019626366
212	0x3d77867f	0.060431
213	0x3ccf0f3e	0.025275823
214	0x3d367922	0.044549115
215	0xbcc49fda	-0.024002004
216	0xbdf15c81	-0.11785222
217	0xbd88f194	-0.06686702
218	0x3cc9879e	0.0246008
219	0x3dbb0e56	0.09133594
220	0x3cf37b57	0.029721899
221	0x3e0d8113	0.13818769
222	0x3bb73dd2	0.0055920864
223	0xbdc69476	-0.096962854
224	0x3e29d78e	0.16586134
225	0xbdac66f4	-0.08418074
226	0x3ddd6615	0.10810486
227	0x3e1bcdc7	0.15215217
228	0xbe089449	-0.13337816
229	0xbe98c126	-0.2983486
230	0x3d804743	0.06263592
231	0xbd4d3863	-0.050102603
232	0xbdfe7559	-0.12424726
233	0x3dc6b341	0.09702159
234	0xbbbcec55	-0.0057654777
235	0x3e02ca75	0.12772544
236	0xbd043664	-0.032278433
237	0xbe351fac	-0.17687863
238	0xbd4cc134	-0.04998894
239	0x3e206178	0.15662181
240	0xbe0c5a67	-0.13706361
241	0x3df9a2cf	0.121892564
242	0x3e760502	0.24025348
243	0x3dd68510	0.104745984
244	0x3e0a2133	0.13489227
245	0xbdb8d869	-0.09025652
246	0xbd901ab9	-0.07036347
247	0x3e04f293	0.1298316
248	0xbd6a2d6d	-0.057172228
249	0xbd962d22	-0.07332827
250	0x3d87bf3b	0.06628271
251	0xbe171ff0	-0.14758277
252	0xbdb13910	-0.08653462
253	0xbe32196a	-0.17392507
254	0x3e296c8c	0.16545314
255	0xbd8194d4	-0.06327215

net2.layers.2.bias f4 [15]
0	0x3cca47b9	0.024692403
1	0x3d997c64	0.07494429
2	0xbd0b5b45	-0.03402259
3	0x3c0bb167	0.008526183
4	0x3ddddf8e	0.10833655
5	0x3de18e6c	0.11013493
6	0xbd1aa644	-0.03775622
7	0xbdf09625	-0.11747388
8	0xbcbb4890	-0.022861749
9	0xbe2127c5	-0.15737827
10	0x3de8fe30	0.113766074
11	0x3d00f2a3	0.031481396
12	0x3d3835ec	0.0449733
13	0x3d32e70c	0.043677375
14	0x3d540741	0.05176473

net2.skips.0.weight f4 [12, 3, 1, 1]
0	0xbd9c59ed	-0.076343395
1	0x3ddac91c	0.1068289
2	0x3d7e3306	0.06206038
3	0x3d09649c	0.033543214
4	0x3e53c080	0.20678902
5	0xbe8e02d1	-0.27736524
6	0xbcf93c22	-0.030424181
7	0xbec900af	-0.39258334
8	0xbdd8cad7	-0.10585564
9	0x3dee512e	0.116365775
10	0xbf11dbb0	-0.5697584
11	0x3f06edab	0.527064
12	0x3e9cd306	0.30629748
13	0x3ea8aea2	0.32945734
14	0xbd483972	-0.04888291
15	0xbeccd105	-0.4000322
16	0xbe4d76c1	-0.20064832
17	0xbe100388	-0.14063847
18	0x3e0f8824	0.14016777
19	0x3ebf61bc	0.37379253
20	0x3e40a36b	0.18812339
21	0xbcb2b2ed	-0.021813834
22	0xbde91e47	-0.11382728
23	0x3df396aa	0.11893971
24	0xbeb1b803	-0.34710702
25	0xbed23361	-0.41054824
26	0xbe80aa3f	-0.25129887
27	0xbea0d381	-0.31411365
28	0xbe4ee2c2	-0.20203689
29	0xbea2c164	-0.3178817
30	0x3ef6f588	0.482342
31	0x3ebc4c86	0.36777133
32	0x3e84fe28	0.25975156
33	0x3e387f90	0.18017411
34	0xbede1f1e	-0.43383116
35	0x3ea34dd1	0.31895307

net2.skips.0.bias f4 [12]
0	0x3efb615f	0.49097726
1	0xbf07a0b4	-0.5297959
2	0xbe1573f5	-0.14595015
3	0xbefdceb6	-0.4957177
4	0xbeac3b72	-0.33639103
5	0xbe255084	-0.16143996
6	0xbeabe659	-0.3357418
7	0x3ef84d74	0.48496592
8	0x3e6bc3df	0.23023938
9	0x3d8238c8	0.063584864
10	0x3ed9d31d	0.4254388
11	0xbd576ae9	-0.05259219

net.layers.0.weight f4 [15, 12, 3, 3]
0	0xbdc0d29d	-0.09415171
1	0x3db0d3c0	0.08634138
2	0x3be0bf78	0.0068587624
3	0xbe194029	-0.14965881
4	0x3d5c2cd2	0.05375368
5	0x3ca0e343	0.019639617
6	0x3d8c7414	0.06858078
7	0x3e2e9438	0.17048728
8	0xbdc11359	-0.094275184
9	0xbe5b3a95	-0.21409066
10	0xbe92e0bb	-0.2868708
11	0x3deb295a	0.114824966
12	0x3d3e214a	0.046418466
13	0x3d03fe19	0.03222475
14	0x3d17217e	0.036897175
15	0x3d551f91	0.052032057
16	0x3c792602	0.015206816
17	0xbe92f233	-0.28700408
18	0x3d755695	0.059897024
19	0xbe90a4d1	-0.28250745
20	0xbe02c383	-0.12769894
21	0x3b800ae9	0.0039075506
22	0xbd7fe442	-0.062473543
23	0xbc81abf0	-0.015829057
24	0x3d17669b	0.036963087
25	0x3d2b770c	0.04186158
26	0x3cf55b07	0.029950632
27	0xbe5b92ed	-0.21442766
28	0xbccc62d1	-0.024949463
29	0x3da0a42d	0.07843814
30	0xbddb859b	-0.107188426
31	0x3e0ab9c7	0.13547431
32	0x3e63d2b6	0.22248349
33	0x3e0a24af	0.13490556
34	0x3e77be84	0.2419377
35	0x3e265e94	0.16247016
36	0x3d3242b3	0.04352064
37	0xbe9c599d	-0.3053712
38	0xbbf1b6d9	-0.0073765335
39	0xbe65b490	-0.2243216
40	0xbe957b49	-0.29195622
41	0x3d32b7e7	0.043632414
42	0x3c1a0854	0.0094014
43	0xbca279fc	-0.019833557
44	0xbb4e3ba2	-0.003146865
45	0x3dc2203c	0.094788045
46	0x3c256a5e	0.010096161
47	0xbe09adb8	-0.13445175
48	0xbd7df6a4	-0.062002793
49	0x3d192064	0.037384406
50	0xbaa80c7b	-0.0012821102
51	0x3e94444d	0.2895836
52	0x3d032422	0.03201688
53	0x3c079800	0.008275986
54	0xbbc77387	-0.00608677
55	0xbda00209	-0.07812888
56	0x3dfd58c5	0.12370447
57	0x3e3aa6c3	0.18227677
58	0xbdaecb39	-0.085348554
59	0x3cbad6e4	0.022807546
60	0xbda36bab	-0.079795204
61	0xbe0284fe	-0.12746045
62	0x3e450735	0.1924103
63	0xbd667e8b	-0.056273025
64	0x3db3315c	0.08749649
65	0x3a85b849	0.0010202016
66	0xbcd55e78	-0.026046023
67	0x3e35c762	0.1775184
68	0x3bbe69b3	0.00581094
69	0x3c9b7ba3	0.018979853
70	0x3da30e7f	0.07961749
71	0x3ce6a4b1	0.028154703
72	0xbe8b3cf3	-0.27194938
73	0xbde2af8c	-0.11068639
74	0x3d9cb215	0.07651154
75	0xbe8c55c0	-0.27409172
76	0xbe7ab3b2	-0.24482611
77	0x3d801484	0.06253913
78	0xbdee1ace	-0.11626206
79	0x3d1c1c06	0.038112663
80	0xbd8b7b13	-0.06810584
81	0xbdec9ebe	-0.11553715
82	0x3db35c53	0.08757844
83	0xbba27e9d	-0.004958941
84	0x3d8adcb0	0.06780374
85	0xbd62ab30	-0.05533904
86	0x3e09f0fe	0.13470837
87	0x3d426830	0.047462642
88	0x3e149eec	0.14513749
89	0xbe38dced	-0.18053026
90	0xbe3764f7	-0.17909609
91	0x3c9e4e0f	0.01932433
92	0xbde7dcb3	-0.11321392
93	0xbe808b6f	-0.2510638
94	0xbe20a9f5	-0.15689833
95	0x3d83740f	0.06418621
96	0x3d66a3d8	0.056308597
97	0xbccd01f1	-0.02502534
98	0x3e670164	0.22559124
99	0xbd301bfd	-0.04299544
100	0x3d64d7f6	0.05587002
101	0xbd47ed36	-0.048810206
102	0x3e693a80	0.22776222
103	0xbdcea0ef	-0.100892894
104	0xbd66dade	-0.05636107
105	0x3c4dbbae	0.012556953
106	0xbde4b7e2	-0.11167885
107	0x3e3a978d	0.18221875
108	0xbc1e7547	-0.009671516
109	0x3d452084	0.048126712
110	0x3e20925b	0.1568083
111	0x3cffedd2	0.031241331
112	0x3da77d36	0.08178179
113	0x3dcb22eb	0.099187694
114	0x3e14b222	0.14521077
115	0x3dacc47e	0.084359154
116	0xbc002bed	-0.007822973
117	0xbd913920	-0.07090974
118	0xbd9c96f1	-0.07645977
119	0x3d74e278	0.05978629
120	0xbd82000f	-0.063476674
121	0x3be20700	0.006897807
122	0xbd9e0182	-0.07715131
123	0xbd33c8b4	-0.043892577
124	0x3e41f717	0.18941914
125	0xbd7388d9	-0.05945668
126	0x3d657c1f	0.056026574
127	0xbe399005	-0.18121345
128	0xbdd03b23	-0.101675294
129	0xbdb6a6db	-0.08918544
130	0xbe14f2c5	-0.14545734
131	0xbdaba69a	-0.08381386
132	0xbd057e31	-0.03259105
133	0x3d2214bc	0.039570555
134	0x3d8fa7b1	0.070144065
135	0x3e77c8db	0.24197714
136	0x3e4e78b6	0.20163235
137	0x3e1a7ee5	0.15087469
138	0x3e59b533	0.21260528
139	0x3ead955d	0.33903018
140	0x3b69c5c9	0.0035670868
141	0x3deed243	0.11661198
142	0x3d889475	0.06668941
143	0xbdf9a058	-0.12188786
144	0xbe06dde1	-0.13170578
145	0xbe8ad7d0	-0.27117777
146	0xbcc4f888	-0.02404429
147	0xbd53c263	-0.051699053
148	0xbe244188	-0.16040623
149	0x3dd598c9	0.10429532
150	0xbdaae879	-0.08345122
151	0x3d7bfb54	0.061518982
152	0x3e1e62ba	0.15467349
153	0xbe599abc	-0.21250433
154	0xbdf48dba	-0.11941095
155	0xbe09a9c2	-0.13443664
156	0xbdcb5dfc	-0.099300355
157	0x3e071cdb	0.13194601
158	0x3be94567	0.007118869
159	0x3d28fdd8	0.04125771
160	0x3cd19a93	0.025586402
161	0x3d672dac	0.05644004
162	0x3e0506ee	0.12990925
163	0x3c964dba	0.01834761
164	0xbcaeafa1	-0.02132398
165	0x3d20caa6	0.03925576
166	0xbe081b5f	-0.13291691
167	0x3d95df30	0.0731796
168	0xbe1f008a	-0.1552755
169	0xbdd7b60b	-0.10532769
170	0x3d8dd92d	0.069261886
171	0x3db07583	0.086161636
172	0x3d10b85b	0.035332065
173	0xbc29b370	-0.010357723
174	0x3d06f462	0.032947905
175	0x3dc3cd07	0.0956059
176	0x3c943167	0.018089963
177	0x3df80f06	0.121122405
178	0x3d85e417	0.06537645
179	0x3d951bc3	0.07280686
180	0xbd272b01	-0.040812496
181	0xbdb89633	-0.09013023
182	0xbd4fcf5d	-0.050734866
183	0xbdcfdf4b	-0.10150012
184	0xbe38e9c9	-0.18057932
185	0xbe202ca5	-0.1564203
186	0x3dcf3a41	0.10118533
187	0xbdb17d32	-0.08666457
188	0xbe283386	-0.16425905
189	0x3c91d4ae	0.017801609
190	0xbc1ee248	-0.009697504
191	0x3dbb9a55	0.09160296
192	0xbd133610	-0.03594023
193	0xbe54666e	-0.20742199
194	0xbc72fb2c	-0.014830392
195	0xbdf4f316	-0.119604275
196	0xbdfb395c	-0.122668
197	0x3de1b97e	0.11021708
198	0xbe9726c0	-0.2952175
199	0xbd2f3776	-0.0427775
200	0xbdc027a6	-0.09382562
201	0xbe88a31e	-0.2668695
202	0xbda475a2	-0.08030249
203	0xbe70ffc4	-0.23535067
204	0xbe1c3d43	-0.15257744
205	0xbe2eee9a	-0.17083207
206	0xbda64e38	-0.08120388
207	0xbd39ebd4	-0.04539092
208	0x3d460dbf	0.048352953
209	0x3d9d0667	0.07667237
210	0xbe3ae89c	-0.18252796
211	0x3ddfabf0	0.10921466
212	0x3d44db48	0.048060685
213	0xbb025baa	-0.0019891062
214	0xbd12eb67	-0.03586903
215	0xbdad6b1e	-0.084676966
216	0xbe1756b7	-0.14779173
217	0xbd5c030c	-0.053713843
218	0xbd00684a	-0.031349458
219	0xbe97b575	-0.29630628
220	0xbca2db62	-0.01988
221	0xbd6a9a7c	-0.057276234
222	0x3d94d524	0.07267216
223	0x3e08fa86	0.13376817
224	0xbc828af1	-0.015935393
225	0x3e4aeb46	0.19816312
226	0x3e3614c5	0.1778136
227	0xbd9ed93c	-0.07756278
228	0x3e22465f	0.15847157
229	0x3d11dca5	0.035610814
230	0xbd8dd640	-0.069256306
231	0x3cf07103	0.029350763
232	0x3cfa2683	0.030535942
233	0x3c66a3e6	0.014077162
234	0x3e1b384d	0.15158196
235	0xbdd438a1	-0.103623636
236	0x3e2b69ae	0.16739532
237	0x3e84f1a5	0.2596561
238	0x3c1b1be3	0.009467098
239	0x3d893154	0.06698862
240	0xbd71426d	-0.05890124
241	0xbda8727c	-0.08224961
242	0x3c52c1e9	0.012863615
243	0x3d3800e2	0.044922717
244	0xbcd3eab2	-0.025868747
245	0xbdb50fff	-0.08840942
246	0x3de3c39b	0.11121293
247	0x3def6fc7	0.11691242
248	0xbe1357df	-0.14388989
249	0x3bd1a390	0.006397672
250	0x3e6ea35a	0.23304501
251	0x3cddfc24	0.02709777
252	0x3de92313	0.11383643
253	0x3d3cdd65	0.046109576
254	0x3d2cc8ea	0.042183794
255	0x3e28f734	0.1650055

net.layers.0.bias f4 [12]
0	0xbda698a7	-0.08134585
1	0xbc7b523d	-0.015339431
2	0xbdf85490	-0.12125504
3	0x3e04d782	0.12972835
4	0xbe0c9760	-0.1372962
5	0xbd7cbb63	-0.061702143
6	0xbd3d5e75	-0.04623266
7	0x3e07ab60	0.13248968
8	0xbe1b564a	-0.15169635
9	0xbe47e6bf	-0.19521616
10	0xbd13ced5	-0.036085922
11	0xbc88dc80	-0.016706705

net.layers.1.0.weight f4 [12, 9, 3, 3]
0	0xbc2b853f	-0.01046878
1	0xbec9fd4e	-0.3945107
2	0xbe062a9a	-0.13102189
3	0xbec32817	-0.38116524
4	0xbe0854eb	-0.13313644
5	0x3d55ba79	0.052179787
6	0x3e2b7b0e	0.1674616
7	0x3e046b3f	0.12931536
8	0xbe9c7d72	-0.30564457
9	0x3df99f8e	0.12188636
10	0xbdd21a3c	-0.1025891
11	0xbda2f2a6	-0.07956438
12	0x3ccac424	0.02475173
13	0x3d89b3e4	0.067237645
14	0xbd97775e	-0.07395814
15	0x3d5f389e	0.054497354
16	0x3c88bbf8	0.016691193
17	0xbe1e7a1a	-0.15476266
18	0x3e1e3740	0.15450764
19	0x3e762db2	0.24040869
20	0x3e854711	0.26030782
21	0x3e9301e2	0.28712374
22	0xbd9e396c	-0.07725796
23	0xbe3e49f3	-0.18582897
24	0xbd845ae8	-0.064626515
25	0xbd2bb1b2	-0.04191751
26	0xbe1682b8	-0.14698303
27	0xbd2b22ee	-0.04178136
28	0x3e42d363	0.1902595
29	0x3d4133cd	0.04716854
30	0x3e7a8a5a	0.2446684
31	0x3dc58d95	0.09646145
32	0xbb656c57	-0.0035007203
33	0xbdc0dade	-0.094167456
34	0x3d9c5fc7	0.076354556
35	0xbd929d38	-0.07158893
36	0x3e502017	0.20324741
37	0x3e37b71c	0.17940944
38	0x3ea2f39e	0.3182649
39	0xbdf7b5f0	-0.12095249
40	0xbd13a4c7	-0.036045816
41	0xbb97ac00	-0.0046286583
42	0xbbf884e5	-0.0075842016
43	0xbd48d8e7	-0.04903498
44	0x3da5b740	0.08091593
45	0xbe9508f9	-0.29108408
46	0xbd143601	-0.036184315
47	0xbe096615	-0.13417847
48	0x3d256906	0.04038336
49	0xbc931c32	-0.01795778
50	0xbd043ea2	-0.032286294
51	0xbe1cec74	-0.15324575
52	0x3d492909	0.0491114
53	0xbdc353ed	-0.09537492
54	0x3d999d4b	0.075007044
55	0xbd8a4e66	-0.067532346
56	0x3dd6d232	0.1048931
57	0xbe21f83b	-0.15817349
58	0xbe4449f3	-0.19168834
59	0xbe4e03a7	-0.20118581
60	0x3ed250ef	0.41077372
61	0xbe06c670	-0.13161635
62	0xbc1236f2	-0.008924233
63	0xbdd1817b	-0.102297746
64	0x3e7fdbce	0.24986193
65	0x3f13a25e	0.5766963
66	0x3cb58e8d	0.0221627
67	0x3e0a0241	0.13477422
68	0x3e05ef28	0.13079512
69	0xbe5fedcf	-0.2186806
70	0x3e325256	0.17414221
71	0x3dd3e7d8	0.10346955
72	0xbc52a0bb	-0.012855704
73	0x3ca5523d	0.020180816
74	0xbc81f8d1	-0.015865715
75	0x3bd84d27	0.006600994
76	0x3d975692	0.07389559
77	0xbe737bf0	-0.23777747
78	0xbc025bf7	-0.007956496
79	0x3e0c1ba1	0.13682415
80	0xbd5374f3	-0.051625203
81	0xbe050577	-0.12990366
82	0xbe0136f0	-0.12618613
83	0xbe6e9321	-0.23298313
84	0xbe326bcb	-0.17423932
85	0xbe673c45	-0.22581585
86	0xbf05030c	-0.51957774
87	0x3cae3a7b	0.02126812
88	0xbdf23bde	-0.11827825
89	0xbec73544	-0.38907826
90	0x3d06665d	0.032812465
91	0x3e19d29d	0.15021749
92	0xbe4ef914	-0.20212203
93	0x3e2b3751	0.1672032
94	0x3d293879	0.041313622
95	0xbdb86553	-0.09003701
96	0x3e8a6e04	0.2703706
97	0x3b235563	0.002492272
98	0xbd92741e	-0.07151054
99	0xbf26daef	-0.65177816
100	0xbe1b0624	-0.15139061
101	0xbe900895	-0.28131548
102	0xbf1abc8a	-0.6044394
103	0x3d376683	0.044775497
104	0xbe998fad	-0.29992428
105	0xbec10bd4	-0.37704337
106	0x3dbe168a	0.09281643
107	0xbe6272c7	-0.22114097
108	0xbe3b1dff	-0.18273161
109	0x3d4e7913	0.050408434
110	0x3ee16b79	0.44027308
111	0x3e254f4f	0.16143535
112	0xbd960b4c	-0.073263735
113	0xbe37d2e0	-0.17951536
114	0x3efc55be	0.49284166
115	0x3c0f76cc	0.008756351
116	0x3f3136d7	0.69224304
117	0xbcf50645	-0.029910216
118	0x3e4da835	0.20083697
119	0xbd238bb1	-0.039928142
120	0x3df3e48f	0.119088285
121	0x3dbdf655	0.092755
122	0xbcc2e3f4	-0.023790337
123	0x3cdc3224	0.026879378
124	0x3db821dd	0.08990834
125	0xbde42e19	-0.11141605
126	0xbd0e77ab	-0.034782093
127	0x39b890d4	0.0003520312
128	0xbec8369f	-0.39104173
129	0x3d352206	0.0442219
130	0x3d4cf8aa	0.050041832
131	0xbdfe1014	-0.124054104
132	0xbeb80220	-0.3593912
133	0xbc942e0d	-0.018088365
134	0xbf0bcc3a	-0.546085
135	0xbe1a95ab	-0.15096156
136	0xbe7e0ef3	-0.2481039
137	0xbd0bb936	-0.034112178
138	0xbe74c281	-0.23902322
139	0x3ddf9e0d	0.10918818
140	0xbd42b8ca	-0.04753951
141	0x3aac031c	0.0013123485
142	0x3d959018	0.07302874
143	0xbde28685	-0.11060814
144	0xbbd31562	-0.006441758
145	0x3e7e04d9	0.24806537
146	0x3e846b1f	0.25862977
147	0x3ee34565	0.4438888
148	0xbe07dcc7	-0.13267814
149	0xbd32c30b	-0.04364304
150	0x3d271f6b	0.040801447
151	0x3e4e28ba	0.20132723
152	0xbe08a6e2	-0.1334491
153	0x3de763f4	0.112983614
154	0x3db4671c	0.08808729
155	0x3e9114ba	0.28336126
156	0x3e36316a	0.17792287
157	0xbe1fc4ce	-0.15602419
158	0xbe074f89	-0.13213934
159	0x3e328a4b	0.17435567
160	0x3ea08ab3	0.3135582
161	0x3d41eb42	0.0473435
162	0xbe1ec5ef	-0.15505193
163	0x3e1c0723	0.15237097
164	0x3ccb5b50	0.024823815
165	0xbdbfcca2	-0.093652025
166	0xbeb59442	-0.35464674
167	0xbe3b2e3c	-0.18279356
168	0xbd903153	-0.07040658
169	0x3cb46036	0.022018533
170	0x3e282296	0.16419443
171	0xbe269139	-0.16266336
172	0xbdbd9b0d	-0.09258089
173	0x3d9ea7e1	0.07746864
174	0xbdb530b6	-0.088471815
175	0xbd04cffe	-0.03242492
176	0xbde048ff	-0.10951423
177	0x3e15c2f8	0.14625156
178	0xbe06d206	-0.13166055
179	0x3e78f5b2	0.24312475
180	0xbedc9445	-0.4308187
181	0xbe954c43	-0.29159746
182	0xbe1fc9ea	-0.15604368
183	0xbe7de46d	-0.24794169
184	0x3d74bffb	0.0597534
185	0x3ee751da	0.45179635
186	0xbd301eeb	-0.042998236
187	0x3cd4c4e0	0.025972784
188	0x3e20288e	0.1564047
189	0x3e24b0b8	0.16083038
190	0xbe02a455	-0.12758
191	0x3d1acef7	0.037795033
192	0xbe8d502f	-0.27600238
193	0xbe411dc9	-0.18859018
194	0xbe07bff6	-0.13256821
195	0x3d6b7d81	0.057492737
196	0x3c4f44fa	0.012650723
197	0xbe6199da	-0.22031346
198	0x3c2093c0	0.009800851
199	0x3e5a3f16	0.21313128
200	0x3d804c33	0.06264534
201	0x3bf5bcd9	0.007499319
202	0xbcc5933c	-0.024118058
203	0xbd70a06a	-0.058746733
204	0xbdb8623d	-0.090031125
205	0xbcf16b43	-0.029470092
206	0x3e065e4a	0.13121906
207	0x3d7bf237	0.06151029
208	0x3d8d7be1	0.06908394
209	0x3e93c48b	0.28860888
210	0xbde3bcf7	-0.111200266
211	0x3cbae891	0.022815974
212	0xba9b30f4	-0.0011840151
213	0xbda57b53	-0.08080163
214	0xbc63ddf7	-0.013907901
215	0x3e01f473	0.12690906
216	0x3e27189c	0.16317981
217	0x3d943f1e	0.07238601
218	0xbbaa16e3	-0.0051907166
219	0xbd9b28e5	-0.075761594
220	0x3ddaf497	0.10691183
221	0xbd975631	-0.073894866
222	0xbbf3f3cb	-0.007444834
223	0x3d3136d0	0.043265164
224	0x3e2aa551	0.16664626
225	0x3df8520a	0.12125023
226	0x3e8da2f5	0.2766339
227	0xbd6b4b34	-0.057444766
228	0x3d302199	0.04300079
229	0xbc667273	-0.014065373
230	0x3bd0bd5a	0.0063702287
231	0x3c956a88	0.018239275
232	0xbdb846b4	-0.089978606
233	0x3e0bfe57	0.13671242
234	0x3e111218	0.14167058
235	0x3e76e59d	0.24111028
236	0xbe08e435	-0.13368304
237	0xbdf7356f	-0.120707385
238	0xbb8ad4ce	-0.004236794
239	0x3e6d89c0	0.23197079
240	0x3d4b346b	0.049610537
241	0xbd16d82f	-0.036827262
242	0x3d94c70d	0.072645284
243	0x3dc470f7	0.09591859
244	0x3b9680cd	0.004592991
245	0x3e269189	0.16266455
246	0xbe851dbf	-0.25999257
247	0xbec09959	-0.37616995
248	0xbd7fa078	-0.062408894
249	0xbd4cc22b	-0.04998986
250	0xbe2b5551	-0.16731764
251	0xbe2fe9f5	-0.17179091
252	0xbdd3c9b7	-0.103412084
253	0xbcb67335	-0.022271732
254	0x3cfd44d2	0.030916605
255	0xbd993f1d	-0.07482741

net.layers.1.0.bias f4 [9]
0	0x3da8a792	0.082350865
1	0x3d963d6e	0.073359355
2	0xbd11e394	-0.035617426
3	0x3e0d0cc4	0.13774401
4	0x3cb35593	0.02189139
5	0x3dbc185c	0.09184334
6	0x3d2f2edc	0.042769298
7	0xbd846702	-0.0646496
8	0xbd60e188	-0.054902583

net.layers.2.weight f4 [9, 3, 3, 3]
0	0xbeb5b982	-0.35493094
1	0xbce72619	-0.028216409
2	0xbd9d5d7f	-0.076838486
3	0x3cded28a	0.027200002
4	0xbe50617a	-0.20349684
5	0xbd76052c	-0.060063526
6	0x3de2f6e9	0.110822506
7	0xbd6282f8	-0.055300683
8	0x3dbc8f85	0.09207062
9	0x3e095b98	0.13413846
10	0xbd716898	-0.05893764
11	0x3d86c6da	0.06580897
12	0xbcec0f0c	-0.028815769
13	0x3ddb6508	0.107126296
14	0x3da7e432	0.08197822
15	0x3e017b83	0.12644772
16	0x3e4c6fc4	0.1996451
17	0x3e48e1f4	0.19617444
18	0x3e12a945	0.14322384
19	0x3d43fc4a	0.047848023
20	0xbc3a54c0	-0.011372745
21	0xbd25d14a	-0.040482797
22	0x3e4768dc	0.19473594
23	0x3e32e371	0.17469575
24	0xbde70c64	-0.1128166
25	0x3e43ef88	0.19134343
26	0x3e13ca31	0.14432599
27	0x3c0845e3	0.008317444
28	0x3d9216ee	0.0713328
29	0xbde85f05	-0.113462485
30	0x3cac4a09	0.021031396
31	0x3dfeb9e5	0.124378
32	0x3e5577bb	0.20846455
33	0x3deb02f0	0.1147517
34	0x3e4e1101	0.20123674
35	0x3e0c534a	0.13703647
36	0xbe2e56ee	-0.17025349
37	0xbe1c124b	-0.15241353
38	0x3da6cbb0	0.08144319
39	0xbe1839ff	-0.14865874
40	0x3c074ff2	0.008258807
41	0xbc15ea0a	-0.009150038
42	0xbe53c2a7	-0.20679723
43	0xbdda5823	-0.10661342
44	0x3d980115	0.074220814
45	0x3e1639b0	0.14670444
46	0x3d22c372	0.039737172
47	0x3d017834	0.031608775
48	0xbd06341a	-0.03276453
49	0xbc4af296	-0.012386939
50	0xbd21b2ca	-0.039477147
51	0x3e0716aa	0.1319224
52	0x3cdc3880	0.02688241
53	0x3ccf0bd0	0.025274187
54	0x3eb24602	0.34819037
55	0x3c9988bd	0.01874196
56	0x3cb1594e	0.02164903
57	0x3db6e119	0.08929653
58	0xbd7edcfa	-0.06222246
59	0xbbcd64de	-0.006268128
60	0xbd3e2b85	-0.046428222
61	0xbd8a3ea0	-0.06750226
62	0xbdbfaffe	-0.0935974
63	0xbebf6745	-0.37383476
64	0xbe24ded2	-0.16100624
65	0xbd0dfaf8	-0.03466317
66	0xbd73c137	-0.059510436
67	0xbe3e16fe	-0.18563458
68	0x3c9b596f	0.018963544
69	0x3cbb38bc	0.022854201
70	0xbd6adbf9	-0.05733869
71	0xbe1f59f8	-0.15561664
72	0x3b9a1ab4	0.0047028903
73	0xbe01e9d6	-0.12686858
74	0x3d82588e	0.06364547
75	0xbd53474f	-0.051581677
76	0xbd10b19a	-0.035325624
77	0xbdf2b863	-0.11851575
78	0xbdce3a0c	-0.10069665
79	0x3da6080d	0.08107004
80	0xbe34af30	-0.17644954
81	0x3d92f1f4	0.07175055
82	0xbcbc28af	-0.022968618
83	0xbd8bed6d	-0.06832395
84	0x3ca4989d	0.020092303
85	0xbd8757e1	-0.066085584
86	0xbdb278a1	-0.087144144
87	0x3cfd9aea	0.030957658
88	0xbdd02d0a	-0.101648405
89	0xbda0b395	-0.078467526
90	0xbe9e2ebd	-0.30895033
91	0xbe916055	-0.28393808
92	0xbe4a78ff	-0.19772719
93	0xbe1d8a6e	-0.15384838
94	0xbe9a5b11	-0.30147603
95	0xbe747096	-0.23871073
96	0xbea227ac	-0.31670892
97	0xbebb8b6b	-0.36629805
98	0xbeaff5e6	-0.34367293
99	0x3c839403	0.016061788
100	0xbd4f0c2e	-0.050548725
101	0x3d10fb0a	0.03539566
102	0x3da430aa	0.080170944
103	0x3c2a799e	0.010404972
104	0xbccba721	-0.024859967
105	0x3cc6df14	0.024276294
106	0x3c85eb8e	0.016347673
107	0xbcbe4a9b	-0.023228934
108	0x3e0d2be0	0.13786268
109	0x3d91ba08	0.07115561
110	0xbd940f40	-0.07229471
111	0x3d7f6a92	0.062357493
112	0x3d32c26a	0.04364244
113	0x3e015d4d	0.12633248
114	0x3e3da871	0.18521287
115	0x3db0aad1	0.08626331
116	0xbc935ffe	-0.017990109
117	0xb9077a3f	-0.00012920143
118	0x3e0470a7	0.12933598
119	0x3e368710	0.1782496
120	0x3c2f8198	0.01071205
121	0xbd5263b3	-0.05136461
122	0x3abc256e	0.0014354417
123	0xbdf8c86d	-0.12147603
124	0x3d3fca8d	0.046824027
125	0x3bf8f0ac	0.0075970497
126	0xbe880893	-0.26569042
127	0xbe382ba7	-0.17985402
128	0xbe796100	-0.24353409
129	0xbdcc1df8	-0.099666536
130	0xbda7d846	-0.08195548
131	0xbd7a8275	-0.06115957
132	0xbd62fe6a	-0.05541841
133	0xbe2d329e	-0.1691384
134	0xbe0a072d	-0.134793
135	0x3d8d2c8f	0.068932645
136	0x3db8d4f3	0.09024992
137	0x3e38c924	0.18045479
138	0xbbea58a6	-0.007151681
139	0xbbf6d98f	-0.007533259
140	0xbd9166b0	-0.07099664
141	0xbe5bcc85	-0.21464737
142	0x3d6218ec	0.05519955
143	0x3bde7027	0.006788272
144	0x3e741334	0.2383545
145	0x3da4670b	0.080274664
146	0xbe057d58	-0.13036096
147	0x3e72a2c2	0.236949
148	0x3e2bcd81	0.16777612
149	0x3dd5d2e6	0.10440616
150	0x3d397560	0.045277953
151	0x3dfef15a	0.12448378
152	0x3e0caf28	0.13738692
153	0x3d6ef3b7	0.058337893
154	0x3ccffcfd	0.025389189
155	0x3d4de60d	0.05026822
156	0xbc9c0c52	-0.019048844
157	0x3d7557b0	0.05989808
158	0x3ddd6c03	0.10811617
159	0x3e1cefde	0.15325877
160	0x3c927b03	0.017880922
161	0x39686423	0.00022162548
162	0x3df7a5a5	0.12092141
163	0x3d54ca3c	0.05195068
164	0x3d2dddcb	0.042447846
165	0xbe0e2522	-0.13881353
166	0xbd3ad4b8	-0.04561302
167	0xbdc0d7d0	-0.09416163
168	0xbe173c6f	-0.14769147
169	0xbce37d46	-0.027769696
170	0xbdc6b84c	-0.097031206
171	0xbde46480	-0.11151981
172	0xbd1ce0cb	-0.038300317
173	0x3dd738b5	0.10508863
174	0x3e2a73ca	0.16645733
175	0xba154b74	-0.00056951423
176	0xbd449b22	-0.04799951
177	0x3dc748e3	0.09730699
178	0xbdbfe0ab	-0.09369024
179	0x3d039034	0.032119945
180	0x3e475a5d	0.19468065
181	0x3d84285d	0.06453011
182	0x3e4c20ec	0.19934434
183	0x3ea4bae4	0.32173836
184	0x3e9f9a8e	0.31172603
185	0xbcd6f949	-0.026241915
186	0x3eaa3055	0.3324
187	0x3e61eff9	0.22064199
188	0x3d64dc76	0.05587431
189	0xbe879489	-0.2648051
190	0xbe008179	-0.1254939
191	0xbd95e9e6	-0.07320003
192	0xbde83edd	-0.11340115
193	0xbe1413ef	-0.14460729
194	0xbe4572fa	-0.19282141
195	0xbdd1f5f8	-0.10251993
196	0xbe7f566b	-0.2493531
197	0xbe4b9568	-0.19881213
198	0x3db23450	0.08701384
199	0x3e829c01	0.25509647
200	0x3e24d36d	0.16096278
201	0xbd5ca43c	-0.053867564
202	0x3d529e68	0.0514206
203	0xbd1198e0	-0.035546184
204	0xbc6bc41d	-0.014390019
205	0xbca0e84f	-0.019642023
206	0x3d450de7	0.04810896
207	0xbe9a35cc	-0.3011917
208	0xbdbad62c	-0.09122881
209	0xbddf2d6e	-0.10897337
210	0x3d3acf42	0.045607813
211	0xbe336563	-0.17519145
212	0x3c80f403	0.015741354
213	0x3dd5156f	0.10404479
214	0xbb68a242	-0.0035497104
215	0xbd2be3b9	-0.04196522
216	0x3e6e44cb	0.2326843
217	0xbd8f346d	-0.06992421
218	0x3de96cd4	0.113977104
219	0x3e14a3d9	0.14515628
220	0x3e13834c	0.14405555
221	0x3e345576	0.17610726
222	0x3df16f8a	0.117888525
223	0x3e5b96d8	0.21444261
224	0x3d993cae	0.07482277
225	0xbca9166b	-0.020640573
226	0xbdfcd683	-0.12345602
227	0xbe08286a	-0.13296667
228	0x3dd58d8e	0.1042739
229	0xbe2bb702	-0.1676903
230	0xbd824cb8	-0.06362289
231	0xbd9aa28d	-0.07550535
232	0xbe576b16	-0.21036944
233	0xbe1b34a6	-0.15156803
234	0x3cd8a574	0.026446082
235	0x3e2ffb0f	0.17185615
236	0x3e371252	0.17878082
237	0xbd3a2829	-0.045448456
238	0xbcea5d78	-0.028609022
239	0xbd3638f7	-0.04448792
240	0xbdd58455	-0.10425631
241	0xbdbb3698	-0.09141272
242	0x3d042543	0.032262098

net.layers.2.bias f4 [3]
0	0xbcb887b0	-0.022525638
1	0x3c8e6ebf	0.017386792
2	0xbc15e82d	-0.009149593

net.layers.3.0.weight f4 [3, 3, 8, 8]
0	0x3d6417f8	0.05568692
1	0x3d21d8c6	0.039513372
2	0x3bc4f554	0.0060106907
3	0xbc1d6db0	-0.009608671
4	0xbc88adb3	-0.016684389
5	0xbdd4399b	-0.1036255
6	0xbc8eb9ce	-0.017422583
7	0x3d650864	0.055916205
8	0x3cd143b5	0.02554498
9	0xbc1733a3	-0.00922862
10	0xbbe70e30	-0.007051252
11	0x3c31c86a	0.010851005
12	0xbdaa16e2	-0.08305146
13	0xbd25e7cc	-0.04050426
14	0xbcdf38c4	-0.027248748
15	0x3cc6ff21	0.024291577
16	0x3cde3ac4	0.027127631
17	0x39e509d1	0.00043685597
18	0x3d9f75be	0.077861294
19	0x3c682221	0.014168293
20	0xbd465b1b	-0.04842673
21	0xbcc86ea0	-0.024466813
22	0xbdb6530d	-0.089025594
23	0xbccd0100	-0.02502489
24	0xbd44afe4	-0.048019305
25	0xbc84d2a9	-0.016213732
26	0x3ce764ee	0.02824637
27	0x3d3ca993	0.046060156
28	0x3d414311	0.0471831
29	0x3d995166	0.07486229
30	0x3ca7a4a2	0.020464245
31	0x3c2c6c7c	0.010523912
32	0xbda72c83	-0.08162787
33	0xbd81dcf2	-0.0634097
34	0xbd6799fd	-0.05654334
35	0x3d51e634	0.05124493
36	0x3d4196b3	0.04726286
37	0x3d90e5c5	0.07075075
38	0x3dc76fa4	0.09738091
39	0x3ce530ac	0.02797731
40	0x3ddb8779	0.10719199
41	0x3d68735b	0.056750637
42	0x3da9f4d3	0.0829865
43	0x3df7483e	0.12074326
44	0xbcded51f	-0.027201233
45	0xbd5eee50	-0.05442649
46	0xbc935d4f	-0.017988829
47	0xbd943a66	-0.07237701
48	0x3dd9e343	0.1063905
49	0x3df435ee	0.11924349
50	0x3d81eb95	0.06343762
51	0x3db6e7df	0.08930945
52	0xbccea6f5	-0.025226096
53	0xbd87fc6b	-0.06639942
54	0xbd2d1df1	-0.042264882
55	0xbd9ef6c0	-0.077619076
56	0x3d6b5896	0.05745753
57	0x3d080692	0.03320939
58	0xbb3269f2	-0.0027223793
59	0x3c854d1b	0.016272118
60	0xbd418fbc	-0.047256216
61	0xbdcdc010	-0.10046399
62	0xbcc6a6bf	-0.024249433
63	0xbc99988b	-0.018749496
64	0x3de8f675	0.11375133
65	0x3e19a328	0.15003645
66	0x3ca7d0b3	0.020485258
67	0x3d8b7c79	0.06810851
68	0xbcb950fa	-0.02262162
69	0xbd5e0e02	-0.054212578
70	0x3ab32dbb	0.0013670245
71	0xbc0102bc	-0.007874187
72	0x3dce470f	0.10072147
73	0x3cd7766a	0.026301581
74	0xbc6aba64	-0.014326666
75	0x3d5e5715	0.054282267
76	0xbce4591d	-0.027874524
77	0x3b996063	0.0046806796
78	0x3d23146d	0.0398144
79	0x3c48dafa	0.012259239
80	0x3d6fa594	0.058507517
81	0x3c0200f1	0.007934795
82	0x3d90a1b6	0.07062094
83	0x3d11b510	0.035573065
84	0x3d23842f	0.039920982
85	0x3d45647f	0.048191544
86	0x3d2b7e32	0.041868396
87	0x3d3d906c	0.04628031
88	0xbd3745f9	-0.044744466
89	0xbce9bc86	-0.028532278
90	0x3d170504	0.036870018
91	0x3d9d5024	0.07681301
92	0x3e0884b4	0.13331872
93	0x3e1194d1	0.14216925
94	0x3db76958	0.089556396
95	0x3d9bc744	0.07606366
96	0xbda36bf5	-0.079795755
97	0xbdbaafb5	-0.09115545
98	0xbceb585f	-0.028728662
99	0xbb84f4f7	-0.0040575224
100	0x3dd521c7	0.10406833
101	0x3dc909e5	0.0981634
102	0x3dd4a686	0.10383324
103	0x3dd9d72f	0.10636746
104	0x3da1f495	0.079079784
105	0x3d9d7fbe	0.076903805
106	0x3da8667a	0.08222671
107	0x3db6fc44	0.089348346
108	0xbca95afe	-0.020673271
109	0xbd8e702f	-0.06954991
110	0xbca4e75e	-0.020129856
111	0xbb0e2659	-0.0021690337
112	0x3ddca1c9	0.107730456
113	0x3dd83b2f	0.105581634
114	0x3d0ca03e	0.034332506
115	0x3dd99038	0.10623211
116	0xbdc185c5	-0.09449343
117	0xbde35653	-0.111004494
118	0xbd660e43	-0.056165945
119	0xbdc2d1a8	-0.09512645
120	0x3da454c3	0.080239795
121	0x3cc68e44	0.02423776
122	0x3c078923	0.008272442
123	0x3d5665a9	0.052343044
124	0xbd86fd85	-0.06591324
125	0xbd9b05c7	-0.07569461
126	0xbd4c577d	-0.049888123
127	0xbdb72bbe	-0.0894389
128	0xbc7d9341	-0.015477003
129	0x3ccf4633	0.025302028
130	0x3cfccf28	0.030860499
131	0x3d9030b2	0.07040538
132	0xbb4b325d	-0.003100536
133	0x3c20f8cc	0.009824943
134	0xbd39b717	-0.045340624
135	0xbdebb740	-0.115095615
136	0x3d86cd82	0.06582166
137	0x3caea30d	0.021317983
138	0x3d62d1a7	0.05537572
139	0x3d09ab94	0.033610895
140	0xbd9f3250	-0.07773268
141	0xbcd8ec11	-0.026479753
142	0xbe04cad3	-0.12967996
143	0xbd89e911	-0.06733907
144	0x3d32a9a6	0.04361882
145	0xbcd4110f	-0.02588704
146	0x3d54a497	0.051914778
147	0x3c9f0edf	0.01941627
148	0x3d2e7c69	0.042599116
149	0x3d7418e7	0.05959406
150	0xbcc9d2c2	-0.02463663
151	0xbd421851	-0.04738647
152	0xbda362c1	-0.0797782
153	0xbd253989	-0.040338073
154	0x3d08f2d3	0.0334347
155	0x3d0a61ae	0.03378456
156	0x3e1b6c05	0.15177925
157	0x3dd78289	0.105229445
158	0x3e128b46	0.14310941
159	0x3db21b14	0.08696571
160	0x3bc5ebb5	0.0060400614
161	0xbd380c98	-0.044933885
162	0xbcdbd47f	-0.026834724
163	0xbca71f31	-0.020400615
164	0x3cabc78c	0.020969175
165	0x3b286d59	0.0025699942
166	0x3cbd9033	0.023140049
167	0x3d832a29	0.06404526
168	0x3d09d671	0.033651773
169	0x3c0da0c8	0.00864429
170	0x3c8d6566	0.017260265
171	0xbd3780ea	-0.044800676
172	0xbd86036c	-0.065436214
173	0xbd9c604b	-0.07635554
174	0xbca7275f	-0.020404516
175	0x3c8979ee	0.016781773
176	0xbb4b74e6	-0.0031045019
177	0xbbba8a95	-0.00569279
178	0xbcbae5af	-0.0228146
179	0x3c9c97ce	0.019115355
180	0xbe16254b	-0.14662664
181	0xbdc5331f	-0.09628891
182	0xbd01b55c	-0.0316671
183	0xbd4ff360	-0.05076921
184	0x3d4c20cc	0.049835965
185	0x3c9aff70	0.01892063
186	0xbccaf37d	-0.024774307
187	0x3d45b514	0.048268393
188	0xbe0b16b5	-0.13582881
189	0xbdb9158b	-0.09037312
190	0xbdef2045	-0.11676077
191	0xbe0bd9b8	-0.13657272
192	0xbdc4e62b	-0.096142136
193	0xbd480965	-0.048837084
194	0xbdc24a86	-0.094868705
195	0xbdbcf308	-0.09226042
196	0xbd85d5fb	-0.06534954
197	0xbccd95e8	-0.025095895
198	0x3d1511ef	0.036394056
199	0xbd0debc7	-0.034648683
200	0xbd0b33af	-0.033984836
201	0xbd901ffd	-0.07037351
202	0xbddcd110	-0.10782063
203	0xbdc3fa05	-0.09569172
204	0xbe271dca	-0.16319957
205	0xbd397f9b	-0.04528771
206	0xbd90b908	-0.07066542
207	0xbd8094a1	-0.06278349
208	0x3cc98ef4	0.024604298
209	0xbd8bf0db	-0.06833049
210	0xbd8ad11a	-0.06778164
211	0xbdf5a2b6	-0.11993925
212	0xbe40e213	-0.1883624
213	0xbdff0bd3	-0.12453427
214	0xbd87254a	-0.06598909
215	0xbd4d6745	-0.050147314
216	0xbcfeb7d1	-0.03109351
217	0xbdf1736e	-0.117895946
218	0xbe19772f	-0.14986871
219	0xbe3f8a31	-0.1870506
220	0xbe55d698	-0.20882642
221	0xbe028707	-0.12746821
222	0xbd5b7777	-0.053580727
223	0xbcd587da	-0.026065756
224	0xbc82de24	-0.015975066
225	0xbddacb90	-0.10683358
226	0xbe1a7cd9	-0.15086688
227	0xbe295d82	-0.16539577
228	0xbe569e96	-0.20958933
229	0xbdeb2590	-0.11481774
230	0xbdb74222	-0.08948161
231	0xbd79f48c	-0.061024234
232	0xbd0bd18f	-0.034135398
233	0xbdd30743	-0.103041194
234	0xbd87f248	-0.06638008
235	0xbdf5c14b	-0.11999758
236	0xbe0df0ea	-0.13861433
237	0xbdbbbae8	-0.09166509
238	0xbd5815cd	-0.052755166
239	0xbd640f37	-0.055678573
240	0xbdbc341d	-0.09189627
241	0xbd948928	-0.07252723
242	0xbd72c28b	-0.059267562
243	0xbe13c609	-0.14431013
244	0xbd931937	-0.07182544
245	0xbd867e91	-0.065671094
246	0xbdc272ff	-0.0949459
247	0xbd1b25c4	-0.037877813
248	0xbd4b7e8e	-0.04968124
249	0xbd37b3fe	-0.04484939
250	0xbd8e48fa	-0.06947513
251	0xbd86bdf8	-0.065792024
252	0xbd9994db	-0.07499095
253	0xbd8130a8	-0.063081086
254	0xbd41c9bd	-0.047311533
255	0xbdcb136d	-0.099158145

net.layers.3.0.bias f4 [3]
0	0x3eb5d9bf	0.3551769
1	0x3e7bdac7	0.24595176
2	0x3e3ad260	0.18244314
